Output_sdss_RSD/trues_Magneticum_lr_1.00e-03_weightdecay_1.00e-06_layers_3_knn_1.50e+04_epochs_30_radius_100000_Mgalmin_biascorr.npy (npy, 64496 bytes, 1 tensors)

array f8 [8046]
0	0x407087c6a0000000	264.4859924316406
1	0xc06c14ccc0000000	-224.64999389648438
2	0x4071d7aa00000000	285.47900390625
3	0xc070ad0620000000	-266.8139953613281
4	0xc059a7be80000000	-102.62100219726562
5	0x4015a9ec20000000	5.415939807891846
6	0xc0459fdf40000000	-43.249000549316406
7	0xc065904180000000	-172.50799560546875
8	0x405966f9e0000000	101.60900115966797
9	0xc07020fe00000000	-258.06201171875
10	0x407409f7c0000000	320.62298583984375
11	0x403ddf7ce0000000	29.87299919128418
12	0x4040d15ea0000000	33.63570022583008
13	0xc07f304180000000	-499.0159912109375
14	0x4059bf5c20000000	102.98999786376953
15	0x4067ad4fe0000000	189.41600036621094
16	0x4050cffb20000000	67.24970245361328
17	0x406d14ac00000000	232.64599609375
18	0x4044ac5a20000000	41.346500396728516
19	0xc07732c4a0000000	-371.1730041503906
20	0x40834f4fe0000000	617.9140014648438
21	0xc04fd08320000000	-63.62900161743164
22	0xc0680befa0000000	-192.3730010986328
23	0x4009fbf720000000	3.248029947280884
24	0xc076f249c0000000	-367.14300537109375
25	0x408bf23120000000	894.2739868164062
26	0x407fe23960000000	510.1390075683594
27	0x4070dd2b00000000	269.822998046875
28	0xc0290f9dc0000000	-12.530500411987305
29	0xc077c6f9e0000000	-380.4360046386719
30	0xc0371daba0000000	-23.11590003967285
31	0x4074d5e360000000	333.3680114746094
32	0xc07218f9e0000000	-289.5610046386719
33	0xc067bdba60000000	-189.9290008544922
34	0xc05089ba60000000	-66.1520004272461
35	0xc060792f20000000	-131.78700256347656
36	0x406c750e60000000	227.6580047607422
37	0x40633befa0000000	153.8730010986328
38	0xc070185e40000000	-257.52301025390625
39	0xc07ff7d700000000	-511.489990234375
40	0x407db42d00000000	475.260986328125
41	0xc0755dd300000000	-341.864013671875
42	0xc080e2dd20000000	-540.3579711914062
43	0xc071f98520000000	-287.5950012207031
44	0x4077c8b860000000	380.5450134277344
45	0x40766e7f00000000	358.906005859375
46	0x407cd4c080000000	461.2969970703125
47	0xc013301b80000000	-4.796979904174805
48	0x40729e1480000000	297.8800048828125
49	0x4056d755a0000000	91.3646011352539
50	0xc07cac6ea0000000	-458.7770080566406
51	0x4062a63540000000	149.19400024414062
52	0x4062dee980000000	150.96600341796875
53	0x406fc4d500000000	254.1510009765625
54	0x4086e1b440000000	732.2130126953125
55	0xc08cad0620000000	-917.6279907226562
56	0x4060d04180000000	134.50799560546875
57	0x404c5b6460000000	56.7140007019043
58	0xc0764a1060000000	-356.6289978027344
59	0xc07336b020000000	-307.4179992675781
60	0xc01fc52be0000000	-7.942550182342529
61	0x4085db8320000000	699.4390258789062
62	0x4060675400000000	131.22900390625
63	0x403858db80000000	24.34709930419922
64	0x40761045a0000000	353.0169982910156
65	0xc054c9c0e0000000	-83.15239715576172
66	0xc071abf3c0000000	-282.74700927734375
67	0xc0772ea3e0000000	-370.9150085449219
68	0x407da9eb80000000	474.6199951171875
69	0x4076501060000000	357.0039978027344
70	0x4070a845a0000000	266.5169982910156
71	0xc030e4bc60000000	-16.89349937438965
72	0x406cd072c0000000	230.51400756835938
73	0x40711eb440000000	273.91900634765625
74	0xc0678a9fc0000000	-188.33200073242188
75	0xc064f2d920000000	-167.58900451660156
76	0xc05acd8100000000	-107.21099853515625
77	0x40514d2060000000	69.2051010131836
78	0x40727fb220000000	295.9809875488281
79	0xc069f2f1a0000000	-207.5919952392578
80	0xc074c30e60000000	-332.1910095214844
81	0x404456d280000000	40.67829895019531
82	0x404d2ea160000000	58.36429977416992
83	0xc043798600000000	-38.94940185546875
84	0x406258b440000000	146.77200317382812
85	0xc071a7efa0000000	-282.4960021972656
86	0x4073afd700000000	314.989990234375
87	0xc074305e40000000	-323.02301025390625
88	0x407233a1c0000000	291.22698974609375
89	0xc05e17be80000000	-120.37100219726562
90	0x4076d0d0e0000000	365.0509948730469
91	0xc07040f5c0000000	-260.05999755859375
92	0xc074916460000000	-329.0870056152344
93	0x403357c1c0000000	19.34280014038086
94	0xc05a695820000000	-105.64600372314453
95	0x406e476460000000	242.2310028076172
96	0x40814426e0000000	552.5189819335938
97	0x406e251680000000	241.15899658203125
98	0x407d26b860000000	466.4200134277344
99	0x4066c78520000000	182.23500061035156
100	0x405f1624e0000000	124.34600067138672
101	0xc0484e21a0000000	-48.61040115356445
102	0xc071ecf1a0000000	-286.8089904785156
103	0x40649c9380000000	164.89300537109375
104	0x407b3df7c0000000	435.87298583984375
105	0xc075b0d0e0000000	-347.0509948730469
106	0x407bf7df40000000	447.49200439453125
107	0x40657e76c0000000	171.95199584960938
108	0x406fc68f60000000	254.2050018310547
109	0x4069f36c80000000	207.60699462890625
110	0xc059b95820000000	-102.89600372314453
111	0xc075c61060000000	-348.3789978027344
112	0xc066537ce0000000	-178.60899353027344
113	0xc081868f60000000	-560.8200073242188
114	0xc0471af500000000	-46.210601806640625
115	0xc05fc16880000000	-127.02200317382812
116	0xc06b735c20000000	-219.60499572753906
117	0x405c9b9580000000	114.43099975585938
118	0x405f652f20000000	125.58100128173828
119	0xc05dc79dc0000000	-119.11900329589844
120	0xc04e679a60000000	-60.80939865112305
121	0xc0608d99a0000000	-132.4250030517578
122	0x4063eb9580000000	159.36199951171875
123	0xc075110620000000	-337.0639953613281
124	0xc0824af7c0000000	-585.3709716796875
125	0x401b61dd20000000	6.845570087432861
126	0xc056d358e0000000	-91.30229949951172
127	0x407e937ce0000000	489.2179870605469
128	0x4069514fe0000000	202.54100036621094
129	0x40635dd300000000	154.9320068359375
130	0x406f6c2900000000	251.3800048828125
131	0xc075c5c280000000	-348.3599853515625
132	0x4067422d00000000	186.0679931640625
133	0xc073f51ec0000000	-319.32000732421875
134	0xc03a0cb2a0000000	-26.04960060119629
135	0xc080bc8940000000	-535.5670166015625
136	0xc06a918100000000	-212.5469970703125
137	0xc0778abc60000000	-376.6709899902344
138	0x403053a920000000	16.326799392700195
139	0x4082cc6ea0000000	601.5540161132812
140	0xc070896880000000	-264.5880126953125
141	0x4063b11ec0000000	157.53500366210938
142	0x3fff5e15c0000000	1.9604699611663818
143	0xc06083f7c0000000	-132.12399291992188
144	0xc071d58940000000	-285.34600830078125
145	0x406cfeb020000000	231.95899963378906
146	0x404f1240c0000000	62.142601013183594
147	0x4071278520000000	274.4700012207031
148	0x408c1e8720000000	899.8159790039062
149	0xc013095c00000000	-4.7591400146484375
150	0xc069133b60000000	-200.6009979248047
151	0x406a033340000000	208.10000610351562
152	0x402f80f900000000	15.751899719238281
153	0x406c5daa00000000	226.927001953125
154	0xc06b5fb640000000	-218.99099731445312
155	0x406410fe00000000	160.531005859375
156	0x3ff7cd8980000000	1.4876799583435059
157	0xbfb4256f20000000	-0.07869619876146317
158	0xc07e036880000000	-480.2130126953125
159	0x4070b86ea0000000	267.5270080566406
160	0xc07b871260000000	-440.4419860839844
161	0x4051e851e0000000	71.62999725341797
162	0xc062e7be80000000	-151.24200439453125
163	0x40736c3540000000	310.76300048828125
164	0x4064bb7ce0000000	165.85899353027344
165	0xc06d5049c0000000	-234.50900268554688
166	0xc0670b0a40000000	-184.34500122070312
167	0xc078a61060000000	-394.3789978027344
168	0xc067f40840000000	-191.62600708007812
169	0x405d5676c0000000	117.35099792480469
170	0x4066838d40000000	180.11099243164062
171	0xc078fd3b60000000	-399.8269958496094
172	0x4073d9be80000000	317.6090087890625
173	0x407bad0200000000	442.81298828125
174	0xc066ea8720000000	-183.32899475097656
175	0x40702b8100000000	258.718994140625
176	0x40813c7ae0000000	551.5599975585938
177	0x404e01c780000000	60.01390075683594
178	0x4050279f60000000	64.61910247802734
179	0x4069c0ccc0000000	206.02499389648438
180	0xc07534d500000000	-339.302001953125
181	0xc06dd61480000000	-238.69000244140625
182	0x405fee1480000000	127.72000122070312
183	0xc075f0f9e0000000	-351.0610046386719
184	0x404f8df700000000	63.109100341796875
185	0xc0826f8940000000	-589.9420166015625
186	0x40822d2b00000000	581.64599609375
187	0xc05e972b00000000	-122.36199951171875
188	0xc0791b0200000000	-401.68798828125
189	0x4077d0b860000000	381.0450134277344
190	0x40692da1c0000000	201.42599487304688
191	0xc0452f6c80000000	-42.37049865722656
192	0xbfc10fae00000000	-0.13329100608825684
193	0xc073e7aa00000000	-318.47900390625
194	0x407b8a51e0000000	440.6449890136719
195	0xc056039dc0000000	-88.05650329589844
196	0x404b67cee0000000	54.81100082397461
197	0x40593c6a80000000	100.94400024414062
198	0xc071f6c4a0000000	-287.4230041503906
199	0x407092d920000000	265.1780090332031
200	0x407d9c72c0000000	473.77801513671875
201	0x40555bc500000000	85.43389892578125
202	0xc0346ea4a0000000	-20.432199478149414
203	0x4083c63960000000	632.7780151367188
204	0xc067fb8520000000	-191.86000061035156
205	0xc063e570a0000000	-159.1699981689453
206	0x4060981060000000	132.7519989013672
207	0x4067eec8c0000000	191.46200561523438
208	0xc05d8e24e0000000	-118.22100067138672
209	0xc062601060000000	-147.0019989013672
210	0xc079bdae20000000	-411.8550109863281
211	0x40602e5e40000000	129.44900512695312
212	0x404018ffa0000000	32.1953010559082
213	0x408223fbe0000000	580.4979858398438
214	0xc03796c220000000	-23.588899612426758
215	0xc07f01eb80000000	-496.1199951171875
216	0x4067810e60000000	188.0330047607422
217	0x4059c322e0000000	103.04900360107422
218	0x40706c1ca0000000	262.7569885253906
219	0x40738fc6a0000000	312.9859924316406
220	0x40595c18a0000000	101.43900299072266
221	0x406b3645a0000000	217.6959991455078
222	0xc03adcf420000000	-26.863100051879883
223	0x406bb9b220000000	221.80299377441406
224	0x408636fbe0000000	710.8729858398438
225	0xc074dc4de0000000	-333.7690124511719
226	0x4063aa24e0000000	157.31700134277344
227	0xc0370a36e0000000	-23.039899826049805
228	0xc06daf8520000000	-237.48500061035156
229	0xc0612b0200000000	-137.343994140625
230	0x40714d9580000000	276.8489990234375
231	0xc0532926e0000000	-76.64299774169922
232	0xc03f8182a0000000	-31.50589942932129
233	0x40565c4820000000	89.44190216064453
234	0xc07f937ce0000000	-505.2179870605469
235	0x4063a6e980000000	157.21600341796875
236	0x405f2676c0000000	124.60099792480469
237	0x406be35c20000000	223.10499572753906
238	0xc07abdd700000000	-427.864990234375
239	0x4084f3e760000000	670.4879760742188
240	0x4048f52f20000000	49.91550064086914
241	0xc06c2570a0000000	-225.1699981689453
242	0xc066d06240000000	-182.51199340820312
243	0x40816c8f60000000	557.5700073242188
244	0xc035c3f140000000	-21.765399932861328
245	0xc05fa3f7c0000000	-126.56199645996094
246	0x40553491e0000000	84.82140350341797
247	0x404e0a9940000000	60.082801818847656
248	0x408072ac00000000	526.333984375
249	0x404afa9940000000	53.957801818847656
250	0xc0466669a0000000	-44.80009841918945
251	0xc063c18940000000	-158.04800415039062
252	0x4078bf47a0000000	395.9549865722656
253	0xc052608800000000	-73.50830078125
254	0xc08260f7c0000000	-588.1209716796875
255	0xc0624f5400000000	-146.47900390625
