Output_sdss_RSD/trues_Magneticum_lr_1.00e-03_weightdecay_1.00e-06_layers_3_knn_1.50e+04_epochs_30_radius_100000_Mgalmin.npy (npy, 64496 bytes, 1 tensors)

array f8 [8046]
0	0xc03adcf420000000	-26.863100051879883
1	0x4073d3e760000000	317.2439880371094
2	0x40789eb860000000	393.9200134277344
3	0x407945efa0000000	404.3710021972656
4	0xc069c7df40000000	-206.24600219726562
5	0xc076b20c40000000	-363.12799072265625
6	0xc05d7eb860000000	-117.9800033569336
7	0xc0556c0840000000	-85.68800354003906
8	0x4064ee3d80000000	167.44500732421875
9	0x407268ccc0000000	294.54998779296875
10	0xc06e64c4a0000000	-243.1490020751953
11	0xc04ad4e700000000	-53.663299560546875
12	0x4009fbf720000000	3.248029947280884
13	0xc05a906240000000	-106.25599670410156
14	0xc06b93efa0000000	-220.6230010986328
15	0x407869ae20000000	390.6050109863281
16	0x4070030620000000	256.1889953613281
17	0x40705ddf40000000	261.86700439453125
18	0x407ce4fe00000000	462.31201171875
19	0xc0649c6240000000	-164.88699340820312
20	0x4071559160000000	277.3479919433594
21	0xc065fcfe00000000	-175.906005859375
22	0x400d2a25e0000000	3.6455800533294678
23	0xc06c0bcee0000000	-224.36900329589844
24	0xc058f7ae20000000	-99.87000274658203
25	0x4061b7a5e0000000	141.73899841308594
26	0xc06e8d6880000000	-244.41900634765625
27	0xc03c4b7180000000	-28.294700622558594
28	0xc0756fba60000000	-342.9830017089844
29	0x406b3645a0000000	217.6959991455078
30	0x403fd52540000000	31.832599639892578
31	0xc06c7b5c20000000	-227.85499572753906
32	0xc0754b74c0000000	-340.71600341796875
33	0x4068adc280000000	197.42999267578125
34	0xc05da999a0000000	-118.6500015258789
35	0xc0679bbe80000000	-188.86700439453125
36	0x40204df500000000	8.152259826660156
37	0x40704d1aa0000000	260.8190002441406
38	0xc0537f9240000000	-77.99330139160156
39	0x40733c51e0000000	307.7699890136719
40	0xc073c7ae20000000	-316.4800109863281
41	0x404d2ea160000000	58.36429977416992
42	0x4076d0d0e0000000	365.0509948730469
43	0xc0708f3340000000	-264.95001220703125
44	0x4089333b60000000	806.4039916992188
45	0xc045ed9160000000	-43.85599899291992
46	0xc061638d40000000	-139.11099243164062
47	0x4051c02260000000	71.0020980834961
48	0x407f533340000000	501.20001220703125
49	0xc06efddb20000000	-247.93299865722656
50	0xc06228ccc0000000	-145.27499389648438
51	0xc0351295e0000000	-21.072599411010742
52	0xc05d8e24e0000000	-118.22100067138672
53	0xc069328f60000000	-201.5800018310547
54	0xc054e978e0000000	-83.64800262451172
55	0x406933df40000000	201.62100219726562
56	0x40538ef1a0000000	78.2334976196289
57	0xc05acd6040000000	-107.20899963378906
58	0x40602e5e40000000	129.44900512695312
59	0xc083af2f20000000	-629.8980102539062
60	0xc0549091e0000000	-82.25890350341797
61	0x405e8bb640000000	122.18299865722656
62	0x406a7e24e0000000	211.94200134277344
63	0xc043f6f6a0000000	-39.92940139770508
64	0xc051615b60000000	-69.52120208740234
65	0x40700ee560000000	256.9309997558594
66	0xc0452b6460000000	-42.3390007019043
67	0x405b672b00000000	109.61199951171875
68	0x407b3c8720000000	435.7829895019531
69	0x407c535c20000000	453.2099914550781
70	0x40727f6880000000	295.9630126953125
71	0x4054f233a0000000	83.7844009399414
72	0xc07d0a6660000000	-464.6499938964844
73	0x4054795d00000000	81.89630126953125
74	0xc070248720000000	-258.2829895019531
75	0xc05c1ba5e0000000	-112.43199920654297
76	0xc0668a0420000000	-180.31300354003906
77	0x40768eb860000000	360.9200134277344
78	0x408058a5e0000000	523.0809936523438
79	0x4070104180000000	257.0159912109375
80	0xc07a05db20000000	-416.3659973144531
81	0xc07b3d6c80000000	-435.8389892578125
82	0x40843b99a0000000	647.4500122070312
83	0x4047b374c0000000	47.402000427246094
84	0x404020a3e0000000	32.255001068115234
85	0x405c8de360000000	114.21700286865234
86	0x4014f38480000000	5.237810134887695
87	0x40825e8f60000000	587.8200073242188
88	0x406fe20420000000	255.06300354003906
89	0xc0796ceda0000000	-406.8080139160156
90	0x405c7cccc0000000	113.94999694824219
91	0x405f7cccc0000000	125.94999694824219
92	0x4032c233a0000000	18.75860023498535
93	0xc060828720000000	-132.07899475097656
94	0x4051251340000000	68.57929992675781
95	0xc0509b1420000000	-66.42310333251953
96	0xc04e1a05c0000000	-60.20330047607422
97	0xc08f6399a0000000	-1004.4500122070312
98	0x404629f220000000	44.327701568603516
99	0x406d3c9380000000	233.89300537109375
100	0xc0672051e0000000	-185.00999450683594
101	0xc0659a1ca0000000	-172.8159942626953
102	0x4085464180000000	680.781982421875
103	0x4080bc1ec0000000	535.5150146484375
104	0xc070e09780000000	-270.0369873046875
105	0xc06401a1c0000000	-160.05099487304688
106	0x405047fcc0000000	65.12480163574219
107	0x407785c6a0000000	376.3609924316406
108	0xc041f5e9e0000000	-35.921199798583984
109	0xc02f436120000000	-15.631600379943848
110	0x4060444180000000	130.13299560546875
111	0x4067665e40000000	187.19900512695312
112	0x4021374540000000	8.607950210571289
113	0x4061d31260000000	142.5959930419922
114	0x4068c645a0000000	198.1959991455078
115	0xc05f9f3b60000000	-126.48799896240234
116	0xc081c71680000000	-568.885986328125
117	0x40449c56e0000000	41.22140121459961
118	0x4076a33740000000	362.20098876953125
119	0x401a2bcbe0000000	6.542769908905029
120	0x407b97cac0000000	441.48699951171875
121	0xc0582c1d80000000	-96.68930053710938
122	0xc07b73f7c0000000	-439.24798583984375
123	0xc04050c160000000	-32.63090133666992
124	0x407b8c0840000000	440.75201416015625
125	0x407175b220000000	279.3559875488281
126	0xc064c83120000000	-166.25599670410156
127	0x40552bbce0000000	84.68340301513672
128	0xc073b9a5e0000000	-315.6029968261719
129	0x40618fcee0000000	140.49400329589844
130	0x40834f4fe0000000	617.9140014648438
131	0x4078693340000000	390.57501220703125
132	0xc0687472c0000000	-195.63900756835938
133	0xc080e378e0000000	-540.4340209960938
134	0xc05fe59160000000	-127.58699798583984
135	0xc062a44180000000	-149.13299560546875
136	0xc0755dd300000000	-341.864013671875
137	0xc07c187f00000000	-449.531005859375
138	0x405ea6a7e0000000	122.60399627685547
139	0x407227c6a0000000	290.4859924316406
140	0xc054fed0e0000000	-83.98149871826172
141	0x4066534bc0000000	178.60299682617188
142	0xc068591ec0000000	-194.78500366210938
143	0x406c573340000000	226.72500610351562
144	0xc070d343a0000000	-269.2040100097656
145	0x4057b779a0000000	94.8667984008789
146	0xc07534d500000000	-339.302001953125
147	0xc056771de0000000	-89.86119842529297
148	0xc06dbd6880000000	-237.91900634765625
149	0x404f162ec0000000	62.173301696777344
150	0xc06baa4de0000000	-221.32200622558594
151	0xc074da1060000000	-333.6289978027344
152	0xc05fa5b220000000	-126.58899688720703
153	0x405eb77ce0000000	122.86699676513672
154	0xc062e5ba60000000	-151.1790008544922
155	0x4073d4c8c0000000	317.29901123046875
156	0xc0795876c0000000	-405.52899169921875
157	0x40737e72c0000000	311.90301513671875
158	0xc06a979580000000	-212.73699951171875
159	0x4062dee980000000	150.96600341796875
160	0x403389ad40000000	19.537799835205078
161	0x4082be0620000000	599.7529907226562
162	0xc067c69fc0000000	-190.20700073242188
163	0xc0884b3b60000000	-777.4039916992188
164	0xc074f64180000000	-335.3909912109375
165	0xc060488320000000	-130.26600646972656
166	0xc0563e3200000000	-88.9718017578125
167	0xc070ad0620000000	-266.8139953613281
168	0xc05e51fbe0000000	-121.28099822998047
169	0x40761a7f00000000	353.656005859375
170	0x406fa87ae0000000	253.26499938964844
171	0xc043056d60000000	-38.04240036010742
172	0x40782f1ec0000000	386.94500732421875
173	0x4060f15820000000	135.54200744628906
174	0xc0673c7ae0000000	-185.88999938964844
175	0x4065c95820000000	174.29200744628906
176	0x4056db8f00000000	91.43060302734375
177	0x4051dda520000000	71.46320343017578
178	0xc054ea83e0000000	-83.66429901123047
179	0x406485b220000000	164.17799377441406
180	0x404ff6c560000000	63.92789840698242
181	0xc0670a6ea0000000	-184.3260040283203
182	0xc05b1c8b40000000	-108.44599914550781
183	0x4060c35400000000	134.10400390625
184	0xc0553507c0000000	-84.82859802246094
185	0xc064ca8720000000	-166.32899475097656
186	0x404dd78a00000000	59.68389892578125
187	0x401ed4a4e0000000	7.70766019821167
188	0xc070caccc0000000	-268.67498779296875
189	0xc0771aa3e0000000	-369.6650085449219
190	0x406ad46a80000000	214.63800048828125
191	0x40753d0620000000	339.8139953613281
192	0xc067580000000000	-186.75
193	0xc081f4ccc0000000	-574.5999755859375
194	0xc03d87dc00000000	-29.53070068359375
195	0xc0736fa5e0000000	-310.9779968261719
196	0xc04f0dd640000000	-62.10810089111328
197	0x405fd6e980000000	127.35800170898438
198	0xc072f926e0000000	-303.5719909667969
199	0xc07ac3aa00000000	-428.22900390625
200	0x4051726ea0000000	69.78800201416016
201	0x4056da2000000000	91.408203125
202	0xc067a90620000000	-189.28199768066406
203	0xc013095c00000000	-4.7591400146484375
204	0x406390bc60000000	156.5229949951172
205	0x40652676c0000000	169.20199584960938
206	0x4051dd7740000000	71.46040344238281
207	0x406f97c6a0000000	252.7429962158203
208	0xc06a5dc280000000	-210.92999267578125
209	0xc0672cfe00000000	-185.406005859375
210	0xc070b36040000000	-267.21099853515625
211	0xc06083f7c0000000	-132.12399291992188
212	0xc077ae6660000000	-378.8999938964844
213	0xc0804a3540000000	-521.2760009765625
214	0x407c2ac080000000	450.6719970703125
215	0x4084fe99a0000000	671.8250122070312
216	0x406ea56880000000	245.16900634765625
217	0x4077518520000000	373.0950012207031
218	0x4063273b60000000	153.2259979248047
219	0xc07d6fc280000000	-470.9849853515625
220	0xc025a3d700000000	-10.819999694824219
221	0xc053976940000000	-78.36579895019531
222	0xc052335a80000000	-72.80239868164062
223	0xc056a6d0e0000000	-90.60649871826172
224	0xc06101aa00000000	-136.052001953125
225	0xc080c5ba60000000	-536.7160034179688
226	0xc06f0b9580000000	-248.36199951171875
227	0xc06335cac0000000	-153.68099975585938
228	0xc05272dc60000000	-73.7947006225586
229	0x4050c46f60000000	67.06929779052734
230	0x40724399a0000000	292.2250061035156
231	0x408072b020000000	526.3359985351562
232	0xc080796c80000000	-527.177978515625
233	0xc0818f9580000000	-561.947998046875
234	0x408581c6a0000000	688.2219848632812
235	0xc085d39fc0000000	-698.4530029296875
236	0x406c5df3c0000000	226.93600463867188
237	0x4079940000000000	409.25
238	0xc053d67860000000	-79.3510971069336
239	0x4057c88320000000	95.13300323486328
240	0x407236bc60000000	291.4209899902344
241	0x40665a6ea0000000	178.8260040283203
242	0x40824e6040000000	585.7969970703125
243	0x408636fbe0000000	710.8729858398438
244	0x4067810e60000000	188.0330047607422
245	0xc05ed49ba0000000	-123.3219985961914
246	0xc069399160000000	-201.7989959716797
247	0x4053203620000000	76.50330352783203
248	0xc069d0a3e0000000	-206.52000427246094
249	0x4066c8a3e0000000	182.27000427246094
250	0xc05bb10620000000	-110.76599884033203
251	0xc053bf2ca0000000	-78.98709869384766
252	0xc061815820000000	-140.04200744628906
253	0xc04737df40000000	-46.436500549316406
254	0x406ddd3f80000000	238.91400146484375
255	0x407361eb80000000	310.1199951171875
