Output_sdss/trues_Magneticum_lr_1.00e-03_weightdecay_1.00e-06_layers_3_knn_1.50e+04_epochs_30_radius_100000_Mgalmin_biascorr.npy (npy, 64496 bytes, 1 tensors)

array f8 [8046]
000000 00 00 00 e0 78 2e 85 c0 00 00 00 e0 f9 ee 61 c0
       -677.8090209960938 -143.46800231933594
000010 00 00 00 c0 f5 60 63 40 00 00 00 c0 72 e0 66 40
       155.02999877929688 183.01400756835938
000020 00 00 00 80 41 76 70 c0 00 00 00 20 b0 56 64 c0
       -263.3909912109375 -162.70899963378906
000030 00 00 00 00 fe 4c 68 c0 00 00 00 80 c0 c2 65 40
       -194.406005859375 174.08599853515625
000040 00 00 00 e0 d0 64 81 c0 00 00 00 20 16 aa 26 40
       -556.6019897460938 11.332200050354004
000050 00 00 00 20 41 a9 56 40 00 00 00 40 62 18 63 40
       90.64459991455078 152.76199340820312
000060 00 00 00 e0 44 20 45 c0 00 00 00 80 ac 93 53 c0
       -42.25210189819336 -78.30740356445312
000070 00 00 00 00 2b af 66 40 00 00 00 00 00 f6 7b c0
       181.4739990234375 -447.375
000080 00 00 00 c0 9d da 89 40 00 00 00 60 0e d1 7b c0
       827.3270263671875 -445.0660095214844
000090 00 00 00 20 2f fd 78 c0 00 00 00 60 ee 92 50 c0
       -399.8240051269531 -66.2957992553711
0000a0 00 00 00 80 6c c3 6e 40 00 00 00 00 7a 66 34 c0
       246.10699462890625 -20.400299072265625
0000b0 00 00 00 40 80 57 4d c0 00 00 00 00 00 09 84 40
       -58.68360137939453 641.125
0000c0 00 00 00 e0 b5 6c 48 c0 00 00 00 e0 f9 5e 74 40
       -48.849300384521484 325.9360046386719
0000d0 00 00 00 40 0c 76 6c 40 00 00 00 a0 35 99 53 40
       227.68899536132812 78.3938980102539
0000e0 00 00 00 60 52 ef 41 40 00 00 00 a0 ed b4 4f c0
       35.86970138549805 -63.41350173950195
0000f0 00 00 00 e0 78 bd 6d c0 00 00 00 80 6a 2c 6f 40
       -237.92100524902344 249.38800048828125
000100 00 00 00 20 ae af 5d 40 00 00 00 c0 a1 9d 81 40
       118.74500274658203 563.7039794921875
000110 00 00 00 40 b6 13 56 c0 00 00 00 40 b4 b8 61 40
       -88.30799865722656 141.77200317382812
000120 00 00 00 80 6c 81 7f 40 00 00 00 40 33 87 60 40
       504.0889892578125 132.22500610351562
000130 00 00 00 60 b8 3e 6c 40 00 00 00 00 2b 83 78 40
       225.9600067138672 392.197998046875
000140 00 00 00 20 83 de 70 c0 00 00 00 c0 9d 8f 72 c0
       -269.9070129394531 -296.97601318359375
000150 00 00 00 e0 7c 1b 73 40 00 00 00 20 b0 72 43 c0
       305.7179870605469 -38.895999908447266
000160 00 00 00 80 14 58 96 40 00 00 00 e0 a7 3e 4b 40
       1430.02001953125 54.489498138427734
000170 00 00 00 60 39 64 66 40 00 00 00 00 86 71 57 c0
       179.1320037841797 -93.7738037109375
000180 00 00 00 c0 a1 71 76 40 00 00 00 00 6f 01 3c 40
       359.10198974609375 28.005599975585938
000190 00 00 00 c0 9d 17 65 c0 00 00 00 60 8f 12 66 40
       -168.73800659179688 176.5800018310547
0001a0 00 00 00 c0 d1 80 2b 40 00 00 00 e0 7c 3f 60 40
       13.75160026550293 129.98399353027344
0001b0 00 00 00 20 61 5b 4b c0 00 00 00 80 3f e5 83 40
       -54.71390151977539 636.656005859375
0001c0 00 00 00 e0 7a d0 73 40 00 00 00 60 b8 fe 78 40
       317.0299987792969 399.9200134277344
0001d0 00 00 00 a0 ef b9 7d c0 00 00 00 20 87 ea 63 40
       -475.6210021972656 159.32899475097656
0001e0 00 00 00 60 c5 be 2b 40 00 00 00 c0 c8 fe 78 40
       13.872599601745605 399.92401123046875
0001f0 00 00 00 c0 9d 6f 64 40 00 00 00 60 ba b1 6b c0
       163.48800659179688 -221.5540008544922
000200 00 00 00 a0 6e 8a 70 c0 00 00 00 e0 b3 21 4a c0
       -264.6520080566406 -52.263301849365234
000210 00 00 00 80 be 0b 6e 40 00 00 00 a0 1a 95 73 40
       240.36700439453125 313.3190002441406
000220 00 00 00 e0 7c b3 71 c0 00 00 00 00 2b dd 70 40
       -283.2179870605469 269.822998046875
000230 00 00 00 00 02 67 69 40 00 00 00 c0 4b 43 74 c0
       203.218994140625 -324.20599365234375
000240 00 00 00 40 08 2c 5b c0 00 00 00 40 62 00 34 c0
       -108.68800354003906 -20.00149917602539
000250 00 00 00 e0 ce 2b 6f c0 00 00 00 c0 1e 4f 70 c0
       -249.36900329589844 -260.94500732421875
000260 00 00 00 e0 fb 79 77 40 00 00 00 e0 7c 13 60 c0
       375.6239929199219 -128.60899353027344
000270 00 00 00 40 e1 23 90 40 00 00 00 40 0a 83 69 c0
       1032.969970703125 -204.09500122070312
000280 00 00 00 80 c0 8c 72 40 00 00 00 20 5c 2f 68 c0
       296.7969970703125 -193.47999572753906
000290 00 00 00 c0 9d dd 85 40 00 00 00 e0 a7 a2 7f c0
       699.7020263671875 -506.1659851074219
0002a0 00 00 00 e0 f9 36 7f 40 00 00 00 e0 4f 21 6d c0
       499.4360046386719 -233.04100036621094
0002b0 00 00 00 20 2f fd 60 c0 00 00 00 c0 9d 57 67 c0
       -135.91200256347656 -186.73800659179688
0002c0 00 00 00 40 0c 60 76 40 00 00 00 c0 ca 7d 7d 40
       358.00299072265625 471.86199951171875
0002d0 00 00 00 40 2e 8f 47 40 00 00 00 40 8b 38 67 c0
       47.11859893798828 -185.76699829101562
0002e0 00 00 00 80 28 6d 2b 40 00 00 00 80 41 6c 72 c0
       13.713199615478516 -294.7659912109375
0002f0 00 00 00 40 0a 51 72 c0 00 00 00 00 d3 53 76 c0
       -293.06500244140625 -357.239013671875
000300 00 00 00 00 aa 75 61 c0 00 00 00 40 c4 bd 50 40
       -139.677001953125 66.96510314941406
000310 00 00 00 60 10 98 60 40 00 00 00 00 2d fa 6a 40
       132.7519989013672 215.8179931640625
000320 00 00 00 c0 e1 11 56 c0 00 00 00 40 37 d5 6b c0
       -88.27940368652344 -222.66299438476562
000330 00 00 00 20 dd 54 59 c0 00 00 00 40 5e f2 69 40
       -101.32599639892578 207.57400512695312
000340 00 00 00 60 66 6e 59 c0 00 00 00 60 3b 6b 60 40
       -101.7249984741211 131.3509979248047
000350 00 00 00 60 8f fa 76 40 00 00 00 a0 61 f8 00 40
       367.6600036621094 2.1212799549102783
000360 00 00 00 40 b4 50 7c 40 00 00 00 00 8f 93 37 40
       453.04400634765625 23.576400756835938
000370 00 00 00 e0 d0 3e 75 c0 00 00 00 c0 76 2a 6e c0
       -339.9259948730469 -241.32699584960938
000380 00 00 00 80 41 88 76 c0 00 00 00 00 66 3f 50 40
       -360.5159912109375 64.9906005859375
000390 00 00 00 40 b4 d4 75 c0 00 00 00 20 dd b4 61 c0
       -349.29400634765625 -141.65199279785156
0003a0 00 00 00 20 d9 5c 7c c0 00 00 00 60 8f 06 60 40
       -453.8030090332031 128.2050018310547
0003b0 00 00 00 a0 ed 68 50 c0 00 00 00 e0 f9 ca 64 c0
       -65.6395034790039 -166.34300231933594
0003c0 00 00 00 80 c2 27 73 c0 00 00 00 00 aa 99 71 c0
       -306.4849853515625 -281.60400390625
0003d0 00 00 00 00 aa 21 72 c0 00 00 00 e0 fb a3 79 40
       -290.10400390625 410.2489929199219
0003e0 00 00 00 40 5e 6a 69 40 00 00 00 20 db 91 59 c0
       203.32400512695312 -102.27899932861328
0003f0 00 00 00 40 e6 4a 55 c0 00 00 00 00 56 3e 64 40
       -85.17030334472656 161.947998046875
000400 00 00 00 20 2f 35 70 c0 00 00 00 40 37 91 5b c0
       -259.3240051269531 -110.26899719238281
000410 00 00 00 40 8d 71 74 c0 00 00 00 c0 cc ac 77 c0
       -327.09698486328125 -378.79998779296875
000420 00 00 00 80 fb 7a 52 c0 00 00 00 c0 74 57 6e 40
       -73.92160034179688 242.73300170898438
000430 00 00 00 20 ae a3 6e c0 00 00 00 c0 f5 98 6f c0
       -245.11500549316406 -252.77999877929688
000440 00 00 00 00 d3 4d 61 c0 00 00 00 20 dd 66 70 c0
       -138.4320068359375 -262.4289855957031
000450 00 00 00 60 bc 78 81 40 00 00 00 a0 9b ec 6c 40
       559.0919799804688 231.3939971923828
000460 00 00 00 a0 c6 31 7c 40 00 00 00 60 66 46 5a 40
       451.1109924316406 105.0999984741211
000470 00 00 00 c0 20 70 62 40 00 00 00 e0 51 80 6c c0
       147.50399780273438 -228.00999450683594
000480 00 00 00 20 db f3 74 40 00 00 00 e0 7a 1c 5d c0
       335.2409973144531 -116.44499969482422
000490 00 00 00 e0 57 30 1b c0 00 00 00 00 00 80 6e c0
       -6.797210216522217 -244.0
0004a0 00 00 00 a0 18 dc 69 40 00 00 00 e0 26 73 74 40
       206.8780059814453 327.1969909667969
0004b0 00 00 00 00 98 e5 54 c0 00 00 00 c0 f3 0d 3b c0
       -83.58740234375 -27.054500579833984
0004c0 00 00 00 e0 7c 13 64 c0 00 00 00 c0 1e 4c 84 40
       -160.60899353027344 649.5150146484375
0004d0 00 00 00 c0 f5 2c 60 40 00 00 00 c0 d5 fe 48 c0
       129.40499877929688 -49.99089813232422
0004e0 00 00 00 a0 f1 3a 5f c0 00 00 00 a0 43 07 7b c0
       -124.9209976196289 -432.4540100097656
0004f0 00 00 00 40 37 09 75 c0 00 00 00 60 39 24 48 40
       -336.57598876953125 48.28300094604492
000500 00 00 00 a0 45 0a 6b c0 00 00 00 00 56 c6 70 c0
       -216.3209991455078 -268.39599609375
000510 00 00 00 c0 b8 f1 58 c0 00 00 00 c0 49 2a 7c 40
       -99.77690124511719 450.64300537109375
000520 00 00 00 00 29 dc 77 40 00 00 00 60 e7 e7 63 c0
       381.760009765625 -159.2469940185547
000530 00 00 00 c0 ca 41 47 c0 00 00 00 80 d9 ed 31 40
       -46.513999938964844 17.929100036621094
000540 00 00 00 80 95 33 59 40 00 00 00 00 81 f5 7b c0
       100.80599975585938 -447.343994140625
000550 00 00 00 e0 a5 d3 64 40 00 00 00 00 81 63 79 c0
       166.61399841308594 -406.218994140625
000560 00 00 00 60 64 1b 78 40 00 00 00 e0 24 7e 73 c0
       385.7120056152344 -311.8840026855469
000570 00 00 00 e0 26 bf 7a 40 00 00 00 00 7f ac 70 c0
       427.9469909667969 -266.781005859375
000580 00 00 00 00 d5 70 6d 40 00 00 00 e0 ce ef 5e 40
       235.5260009765625 123.74700164794922
000590 00 00 00 80 93 34 74 c0 00 00 00 a0 f1 82 74 c0
       -323.2860107421875 -328.1839904785156
0005a0 00 00 00 80 41 e8 61 c0 00 00 00 80 71 e7 56 40
       -143.25799560546875 91.61630249023438
0005b0 00 00 00 20 5a 04 5f 40 00 00 00 80 7c d8 40 c0
       124.06800079345703 -33.69129943847656
0005c0 00 00 00 80 16 e7 75 c0 00 00 00 40 62 43 82 40
       -350.4429931640625 584.4229736328125
0005d0 00 00 00 40 62 00 64 c0 00 00 00 60 8f aa 75 40
       -160.01199340820312 346.6600036621094
0005e0 00 00 00 c0 9f 9e 68 40 00 00 00 e0 e1 df 22 c0
       196.95700073242188 -9.437270164489746
0005f0 00 00 00 a0 99 11 6d 40 00 00 00 c0 9d c7 79 c0
       232.5500030517578 -412.47601318359375
000600 00 00 00 c0 49 30 63 40 00 00 00 e0 bc 2f 54 40
       153.50900268554688 80.74590301513672
000610 00 00 00 c0 72 d8 64 c0 00 00 00 00 6d 7e 48 40
       -166.76400756835938 48.987701416015625
000620 00 00 00 80 be 79 73 40 00 00 00 00 fe dc 5a 40
       311.6090087890625 107.4530029296875
000630 00 00 00 00 02 b3 5a c0 00 00 00 20 c0 db 57 c0
       -106.7969970703125 -95.43360137939453
000640 00 00 00 e0 98 8e 21 40 00 00 00 a0 70 81 85 40
       8.778510093688965 688.1799926757812
000650 00 00 00 00 d3 81 65 c0 00 00 00 20 5a 9c 5e c0
       -172.0570068359375 -122.44300079345703
000660 00 00 00 a0 c4 3e 86 c0 00 00 00 00 34 3d 58 40
       -711.8460083007812 96.956298828125
000670 00 00 00 a0 99 01 5b 40 00 00 00 20 06 49 5f c0
       108.0250015258789 -125.14099884033203
000680 00 00 00 60 bc 9c 60 40 00 00 00 60 e5 40 5c 40
       132.8979949951172 113.01399993896484
000690 00 00 00 60 0e 7b 83 c0 00 00 00 c0 72 a4 84 c0
       -623.3820190429688 -660.5560302734375
0006a0 00 00 00 00 29 34 64 c0 00 00 00 20 dd ec 60 c0
       -161.6300048828125 -135.40199279785156
0006b0 00 00 00 00 f0 86 48 c0 00 00 00 60 8f 56 71 c0
       -49.05419921875 -277.4100036621094
0006c0 00 00 00 e0 7a 84 41 40 00 00 00 20 16 62 41 40
       35.03499984741211 34.766300201416016
0006d0 00 00 00 80 95 83 42 40 00 00 00 a0 18 a4 5b c0
       37.02799987792969 -110.56400299072266
0006e0 00 00 00 a0 a4 9a 55 40 00 00 00 e0 04 24 51 40
       86.41629791259766 68.56279754638672
0006f0 00 00 00 60 32 41 52 40 00 00 00 e0 26 51 62 40
       73.0186996459961 146.53599548339844
000700 00 00 00 a0 1c 92 7e 40 00 00 00 40 33 c4 84 c0
       489.1319885253906 -664.5250244140625
000710 00 00 00 00 be 80 30 40 00 00 00 20 04 06 72 40
       16.502899169921875 288.3760070800781
000720 00 00 00 c0 72 80 66 c0 00 00 00 20 5c af 6c c0
       -180.01400756835938 -229.47999572753906
000730 00 00 00 00 d7 ab 5b c0 00 00 00 60 91 4d 81 c0
       -110.68499755859375 -553.6959838867188
000740 00 00 00 00 34 b1 3d 40 00 00 00 20 db 61 65 40
       29.69219970703125 171.05799865722656
000750 00 00 00 a0 ed 9c 82 c0 00 00 00 00 e7 74 50 c0
       -595.6160278320312 -65.82659912109375
000760 00 00 00 40 08 44 70 40 00 00 00 c0 a1 89 60 40
       260.25201416015625 132.30099487304688
000770 00 00 00 e0 78 25 6b 40 00 00 00 60 39 b4 5d 40
       217.17100524902344 118.81600189208984
000780 00 00 00 00 00 86 7f c0 00 00 00 c0 f3 cd 66 c0
       -504.375 -182.43600463867188
000790 00 00 00 60 b8 32 6c 40 00 00 00 e0 fb 34 86 c0
       225.5850067138672 -710.6229858398438
0007a0 00 00 00 80 be bf 5e c0 00 00 00 a0 ed ee 7a c0
       -122.99600219726562 -430.9330139160156
0007b0 00 00 00 e0 d0 c6 69 c0 00 00 00 20 5c 1f 44 40
       -206.21299743652344 40.244998931884766
0007c0 00 00 00 e0 ce 8b 66 c0 00 00 00 a0 43 fb 66 c0
       -180.36900329589844 -183.8520050048828
0007d0 00 00 00 20 db 91 64 c0 00 00 00 00 d3 18 82 40
       -164.55799865722656 579.10302734375
0007e0 00 00 00 00 b1 00 35 c0 00 00 00 a0 18 60 6d 40
       -21.002700805664062 235.0030059814453
0007f0 00 00 00 c0 76 ae 82 c0 00 00 00 a0 f1 ee 66 40
       -597.8079833984375 183.4669952392578
