Output_sdss/trues_Magneticum_lr_1.00e-03_weightdecay_1.00e-06_layers_3_knn_1.50e+04_epochs_30_radius_100000_Mgalmin.npy (npy, 64496 bytes, 1 tensors)

array f8 [8046]
0	0x4084625a20000000	652.2940063476562
1	0xc04263da60000000	-36.78010177612305
2	0xc05fc2e140000000	-127.04499816894531
3	0xc0864674c0000000	-712.8070068359375
4	0xc05b41ba60000000	-109.0270004272461
5	0xc054312d80000000	-80.76840209960938
6	0x4040d7f2e0000000	33.68709945678711
7	0xc06fba45a0000000	-253.8209991455078
8	0x404ed926e0000000	61.69649887084961
9	0x4053fad420000000	79.91919708251953
10	0xc07bd58100000000	-445.343994140625
11	0xc0173a1ca0000000	-5.8067498207092285
12	0xc05cc86240000000	-115.13099670410156
13	0x4044752f20000000	40.91550064086914
14	0x4049a61140000000	51.297401428222656
15	0x407b55cac0000000	437.36199951171875
16	0xc08f6f8520000000	-1005.9400024414062
17	0xc07122a7e0000000	-274.1659851074219
18	0xc0448c9520000000	-41.09830093383789
19	0x4063c2e140000000	158.08999633789062
20	0x40638f8d40000000	156.48599243164062
21	0xc074a218a0000000	-330.1310119628906
22	0xc05bc90620000000	-111.14099884033203
23	0x407eea76c0000000	494.65399169921875
24	0x4042d01060000000	37.6254997253418
25	0x40632c9380000000	153.39300537109375
26	0xc084e76240000000	-668.9229736328125
27	0xc041c4c640000000	-35.53730010986328
28	0xc07aa21ca0000000	-426.1319885253906
29	0x4077f40000000000	383.25
30	0x40695da1c0000000	202.92599487304688
31	0x409023e140000000	1032.969970703125
32	0x40855851e0000000	683.0399780273438
33	0xc0854cd300000000	-681.60302734375
34	0x406e2a6660000000	241.3249969482422
35	0x404a9844e0000000	53.18960189819336
36	0xc073ccc080000000	-316.7969970703125
37	0xc068ce4de0000000	-198.44700622558594
38	0x4070f30e60000000	271.1910095214844
39	0x404f9ef6a0000000	63.24190139770508
40	0xc06a0872c0000000	-208.26400756835938
41	0xc080212d00000000	-516.14697265625
42	0x40598b8520000000	102.18000030517578
43	0xc0816c43a0000000	-557.5330200195312
44	0xc071090620000000	-272.5639953613281
45	0x405682d780000000	90.04440307617188
46	0xc03cadf3c0000000	-28.679500579833984
47	0x4071297ce0000000	274.5929870605469
48	0x406b449380000000	218.14300537109375
49	0xc0848e4de0000000	-657.7880249023438
50	0x406d34b440000000	233.64700317382812
51	0xc075a44180000000	-346.2659912109375
52	0xc059304180000000	-100.75399780273438
53	0xc05adf8d40000000	-107.49299621582031
54	0x40654d47a0000000	170.4149932861328
55	0xc0538aba00000000	-78.1676025390625
56	0xc040bf7320000000	-33.49570083618164
57	0xc063670200000000	-155.218994140625
58	0x405fb98940000000	126.89900207519531
59	0x405f136460000000	124.3030014038086
60	0x40814426e0000000	552.5189819335938
61	0xc07c3ac080000000	-451.6719970703125
62	0x407389be80000000	312.6090087890625
63	0xc04f311d20000000	-62.38370132446289
64	0x407021e760000000	258.1189880371094
65	0xc0530e3060000000	-76.2217025756836
66	0x4071895c20000000	280.5849914550781
67	0x406f52e140000000	250.58999633789062
68	0xc0635b22e0000000	-154.84800720214844
69	0x4082228720000000	580.3159790039062
70	0xc0675b4bc0000000	-186.85299682617188
71	0xc0553477a0000000	-84.8198013305664
72	0x406b73be80000000	219.61700439453125
73	0x404eee00e0000000	61.85940170288086
74	0x4050954e40000000	66.33290100097656
75	0x40539935a0000000	78.3938980102539
76	0x4068992f20000000	196.78700256347656
77	0xc03ae97f60000000	-26.912099838256836
78	0xc00f844d00000000	-3.9395999908447266
79	0x40813c6240000000	551.5479736328125
80	0xc06f98f5c0000000	-252.77999877929688
81	0xc0622d47a0000000	-145.4149932861328
82	0xc06a75db20000000	-211.68299865722656
83	0x4073035c20000000	304.2099914550781
84	0xc05a596880000000	-105.39700317382812
85	0x407be7db20000000	446.4909973144531
86	0x406487be80000000	164.24200439453125
87	0x403aeb1c40000000	26.918399810791016
88	0xc075ba6a80000000	-347.6510009765625
89	0x4074f1cac0000000	335.11199951171875
90	0xc0746eb860000000	-326.9200134277344
91	0x4065c68720000000	174.20399475097656
92	0x40624b6c80000000	146.35699462890625
93	0x4043636e20000000	38.776798248291016
94	0x407ea44de0000000	490.2690124511719
95	0x407dac0000000000	474.75
96	0xc069d33b60000000	-206.6009979248047
97	0xc038b43fe0000000	-24.704099655151367
98	0xc061d86240000000	-142.76199340820312
99	0x4050173d00000000	64.36309814453125
100	0x4068e60c40000000	199.18899536132812
101	0x401ff3fd00000000	7.988269805908203
102	0x4076c374c0000000	364.21600341796875
103	0xc085a68720000000	-692.8159790039062
104	0x4079b5b640000000	411.35699462890625
105	0x40554fefa0000000	85.2490005493164
106	0x4086b3b640000000	726.4639892578125
107	0x4021056d60000000	8.510600090026855
108	0x40714b9160000000	276.7229919433594
109	0xc038cb08a0000000	-24.793100357055664
110	0x404ed31260000000	61.64899826049805
111	0x4073a90620000000	314.5639953613281
112	0xc04741cac0000000	-46.513999938964844
113	0x406521f3c0000000	169.06100463867188
114	0xc003af6e80000000	-2.460659980773926
115	0x40482020c0000000	48.250999450683594
116	0xc05f64bc60000000	-125.5739974975586
117	0xc07aa11aa0000000	-426.0690002441406
118	0x4045bd4ca0000000	43.47890090942383
119	0x4063e70a40000000	159.22000122070312
120	0xc079892f20000000	-408.5740051269531
121	0x40661c18a0000000	176.8780059814453
122	0xc087fdcac0000000	-767.7239990234375
123	0xc052c818a0000000	-75.12650299072266
124	0x4072caccc0000000	300.67498779296875
125	0xc0751272c0000000	-337.15301513671875
126	0xc060708320000000	-131.51600646972656
127	0x4055c31260000000	87.0479965209961
128	0x4063fe5600000000	159.947998046875
129	0x4020489760000000	8.141779899597168
130	0x4076b76040000000	363.46099853515625
131	0xc06b7e0420000000	-219.93800354003906
132	0x40652be760000000	169.3719940185547
133	0xc0712f6460000000	-274.9620056152344
134	0xc0750fb220000000	-336.9809875488281
135	0xc0645d70a0000000	-162.9199981689453
136	0x405480c300000000	82.01190185546875
137	0xc0596e6660000000	-101.7249984741211
138	0xc06a0f43a0000000	-208.4770050048828
139	0xc066b6b860000000	-181.7100067138672
140	0xc05d7bd700000000	-117.93499755859375
141	0xc05e784180000000	-121.87899780273438
142	0xc077b8ac00000000	-379.5419921875
143	0xc073902d00000000	-313.010986328125
144	0x4064747ae0000000	163.63999938964844
145	0xc08944fe00000000	-808.6240234375
146	0x4084949780000000	658.573974609375
147	0xc0827272c0000000	-590.3060302734375
148	0xc0888bae20000000	-785.4600219726562
149	0xc0704f1ec0000000	-260.94500732421875
150	0x406ad2b860000000	214.5850067138672
151	0x406c4d6880000000	226.41900634765625
152	0xc071148720000000	-273.2829895019531
153	0x4080f3dd20000000	542.4829711914062
154	0xc05569ce00000000	-85.6531982421875
155	0x4063e1b220000000	159.05299377441406
156	0xc052e001a0000000	-75.5000991821289
157	0xc0680fc6a0000000	-192.4929962158203
158	0xc05992e140000000	-102.29499816894531
159	0x404003a5e0000000	32.028499603271484
160	0x40720d6880000000	288.8380126953125
161	0x407bc2e980000000	444.1820068359375
162	0x3fe6558c80000000	0.6979429721832275
163	0x4074daeda0000000	333.6830139160156
164	0x4062fe1480000000	151.94000244140625
165	0xc079cf6c80000000	-412.9639892578125
166	0xc077a27f00000000	-378.156005859375
167	0xc06fa0f5c0000000	-253.02999877929688
168	0xc068015820000000	-192.04200744628906
169	0x4053f89ba0000000	79.8844985961914
170	0x4055261620000000	84.59510040283203
171	0x4049c240c0000000	51.517601013183594
172	0x4065dfe760000000	174.9969940185547
173	0x406c228f60000000	225.0800018310547
174	0x4020a81c20000000	8.328339576721191
175	0xc02c1a5120000000	-14.051400184631348
176	0xc077e4e980000000	-382.3070068359375
177	0x4077a46a80000000	378.2760009765625
178	0xc071101060000000	-273.0039978027344
179	0x405e82c080000000	122.04299926757812
180	0x405e97efa0000000	122.3740005493164
181	0xc075817ce0000000	-344.0929870605469
182	0x4066305a20000000	177.51100158691406
183	0x40545a1480000000	81.40750122070312
184	0x4066e5fbe0000000	183.18699645996094
185	0x4045b205c0000000	43.39080047607422
186	0xc07477cac0000000	-327.48699951171875
187	0x4080831680000000	528.385986328125
188	0xc061d8eda0000000	-142.7790069580078
189	0xc06fc6b860000000	-254.2100067138672
190	0xc07d271680000000	-466.4429931640625
191	0x403bfd9e80000000	27.990699768066406
192	0xc052091ec0000000	-72.14250183105469
193	0xc02af3eac0000000	-13.476400375366211
194	0x406199f3c0000000	140.81100463867188
195	0xc070417ce0000000	-260.0929870605469
196	0xc0778c5600000000	-376.77099609375
197	0xc075d4b440000000	-349.29400634765625
198	0xc03138db80000000	-17.22209930419922
199	0xc072dec080000000	-301.9219970703125
200	0x40535d4b00000000	77.45770263671875
201	0x40748eccc0000000	328.92498779296875
202	0xc07e7beb80000000	-487.7449951171875
203	0xc03f6cb920000000	-31.424699783325195
204	0xc05092ee60000000	-66.2957992553711
205	0xc04d365ca0000000	-58.42470169067383
206	0x408afdbc60000000	863.7169799804688
207	0xc06f2bcee0000000	-249.36900329589844
208	0x406c515820000000	226.54200744628906
209	0x40490beac0000000	50.093101501464844
210	0x406e495820000000	242.29200744628906
211	0xc077fa5e40000000	-383.64801025390625
212	0xc06cede360000000	-231.4340057373047
213	0xc042b288c0000000	-37.394798278808594
214	0xc05686fb80000000	-90.10910034179688
215	0x40691ae980000000	200.84100341796875
216	0xc06c066660000000	-224.1999969482422
217	0x4051a2d280000000	70.54409790039062
218	0x40844c9ba0000000	649.5759887695312
219	0xc0710347a0000000	-272.2049865722656
220	0x406cf72b00000000	231.7239990234375
221	0xc03b240b80000000	-27.14080047607422
222	0xc06bd53740000000	-222.66299438476562
223	0xc04b17ec60000000	-54.1869010925293
224	0x405e28d500000000	120.63800048828125
225	0xc069c09380000000	-206.01800537109375
226	0xc0763af5c0000000	-355.68499755859375
227	0x4076d36040000000	365.21099853515625
228	0xc01bb31660000000	-6.924890041351318
229	0x405d860420000000	118.09400177001953
230	0xc0827b9380000000	-591.447021484375
231	0x4069b67f00000000	205.7030029296875
232	0x406dde3540000000	238.94400024414062
233	0xc07136a7e0000000	-275.4159851074219
234	0x407905b220000000	400.3559875488281
235	0xc086488f60000000	-713.0700073242188
236	0xc095e13340000000	-1400.300048828125
237	0xc078ae2d00000000	-394.885986328125
238	0x405db3b640000000	118.80799865722656
239	0x407551c6a0000000	341.1109924316406
240	0x4045b507c0000000	43.41429901123047
241	0xc0391f1420000000	-25.121400833129883
242	0xc0625851e0000000	-146.75999450683594
243	0xc06b768f60000000	-219.7050018310547
244	0x407f755820000000	503.3340148925781
245	0xc0536e17c0000000	-77.72019958496094
246	0xc0449bb300000000	-41.216400146484375
247	0xc0783b3b60000000	-387.7019958496094
248	0xc085594bc0000000	-683.1619873046875
249	0xc05c669780000000	-113.60299682617188
250	0xc078f9e760000000	-399.6189880371094
251	0x407048f1a0000000	260.5589904785156
252	0xc066db22e0000000	-182.84800720214844
253	0xc056515660000000	-89.2708969116211
254	0xc07a743960000000	-423.2640075683594
255	0x4064670200000000	163.218994140625
